Model: "functional"
+--------------------------------------------------------------------------------------+
| Layer (type)                         | Output Shape                |         Param # |
|--------------------------------------+-----------------------------+-----------------|
| input_layer_1 (InputLayer)           | (None, 160, 160, 3)         |               0 |
|--------------------------------------+-----------------------------+-----------------|
| resnet50 (Functional)                | (None, 5, 5, 2048)          |      23,587,712 |
|--------------------------------------+-----------------------------+-----------------|
| global_average_pooling2d             | (None, 2048)                |               0 |
| (GlobalAveragePooling2D)             |                             |                 |
|--------------------------------------+-----------------------------+-----------------|
| dropout (Dropout)                    | (None, 2048)                |               0 |
|--------------------------------------+-----------------------------+-----------------|
| dense (Dense)                        | (None, 100)                 |         204,900 |
+--------------------------------------------------------------------------------------+
 Total params: 23,792,612 (90.76 MB)
 Trainable params: 204,900 (800.39 KB)
 Non-trainable params: 23,587,712 (89.98 MB)

